…
    outputs = Conv2D(1, 1, activation='sigmoid')(conv7)

    model = Model(inputs=inputs, outputs=outputs)
    return model

  __________________________________________________________________________________________________
 Layer (type)                Output Shape                 Param #   Connected to                  
==================================================================================================
 input_1 (InputLayer)        [(None, 256, 256, 1)]        0         []                            
                                                                                                  
 conv2d (Conv2D)             (None, 256, 256, 64)         640       ['input_1[0][0]']             
                                                                                                  
 conv2d_1 (Conv2D)           (None, 256, 256, 64)         36928     ['conv2d[0][0]']              
                                                                                                  
 max_pooling2d (MaxPooling2  (None, 128, 128, 64)         0         ['conv2d_1[0][0]']            
 D)                                                                                               
                                                                                                  
 conv2d_2 (Conv2D)           (None, 128, 128, 128)        73856     ['max_pooling2d[0][0]']       
                                                                                                  
 conv2d_3 (Conv2D)           (None, 128, 128, 128)        147584    ['conv2d_2[0][0]']            
                                                                                                  
 max_pooling2d_1 (MaxPoolin  (None, 64, 64, 128)          0         ['conv2d_3[0][0]']            
 g2D)                                                                                             
                                                                                                  
 conv2d_4 (Conv2D)           (None, 64, 64, 256)          295168    ['max_pooling2d_1[0][0]']     
                                                                                                  
 conv2d_5 (Conv2D)           (None, 64, 64, 256)          590080    ['conv2d_4[0][0]']            
                                                                                                  
 max_pooling2d_2 (MaxPoolin  (None, 32, 32, 256)          0         ['conv2d_5[0][0]']            
 g2D)                                                                                             
                                                                                                  
 conv2d_6 (Conv2D)           (None, 32, 32, 512)          1180160   ['max_pooling2d_2[0][0]']     
                                                                                                  
 conv2d_7 (Conv2D)           (None, 32, 32, 512)          2359808   ['conv2d_6[0][0]']            
                                                                                                  
 dropout (Dropout)           (None, 32, 32, 512)          0         ['conv2d_7[0][0]']            
                                                                                                  
 conv2d_transpose (Conv2DTr  (None, 64, 64, 256)          524544    ['dropout[0][0]']             
 anspose)                                                                                         
                                                                                                  
 concatenate (Concatenate)   (None, 64, 64, 512)          0         ['conv2d_5[0][0]',            
                                                                     'conv2d_transpose[0][0]']    
                                                                                                  
 conv2d_8 (Conv2D)           (None, 64, 64, 256)          1179904   ['concatenate[0][0]']         
                                                                                                  
 conv2d_9 (Conv2D)           (None, 64, 64, 256)          590080    ['conv2d_8[0][0]']            
                                                                                                  
 conv2d_transpose_1 (Conv2D  (None, 128, 128, 128)        131200    ['conv2d_9[0][0]']            
 Transpose)                                                                                       
                                                                                                  
 concatenate_1 (Concatenate  (None, 128, 128, 256)        0         ['conv2d_3[0][0]',            
 )                                                                   'conv2d_transpose_1[0][0]']  
                                                                                                  
 conv2d_10 (Conv2D)          (None, 128, 128, 128)        295040    ['concatenate_1[0][0]']       
                                                                                                  
 conv2d_11 (Conv2D)          (None, 128, 128, 128)        147584    ['conv2d_10[0][0]']           
                                                                                                  
 conv2d_transpose_2 (Conv2D  (None, 256, 256, 64)         32832     ['conv2d_11[0][0]']           
 Transpose)                                                                                       
                                                                                                  
 concatenate_2 (Concatenate  (None, 256, 256, 128)        0         ['conv2d_1[0][0]',            
 )                                                                   'conv2d_transpose_2[0][0]']  
                                                                                                  
 conv2d_12 (Conv2D)          (None, 256, 256, 64)         73792     ['concatenate_2[0][0]']       
                                                                                                  
 conv2d_13 (Conv2D)          (None, 256, 256, 64)         36928     ['conv2d_12[0][0]']           
                                                                                                  
 conv2d_14 (Conv2D)          (None, 256, 256, 1)          65        ['conv2d_13[0][0]']           
                                                                                                  
==================================================================================================
Total params: 7696193 (29.36 MB)
Trainable params: 7696193 (29.36 MB)
Non-trainable params: 0 (0.00 Byte)
